…
2023-05-31 10:51:40.460863: I tensorflow/stream_executor/cuda/cuda_blas.cc:1838] TensorFloat-32 will be used for the matrix multiplication. This will only be logged once.
(100, 96)
(1000, 96)
the third one (1100, 96)
the forth one (1100, 2)
pooling layers: 6
i is 0
i is 1
i is 2
i is 3
i is 4
i is 5
Model: "model"
_________________________________________________________________
Layer (type)                 Output Shape              Param #   
=================================================================
input_1 (InputLayer)         [(None, 96, 1)]           0         
_________________________________________________________________
conv1d (Conv1D)              (None, 96, 64)            256       
_________________________________________________________________
conv1d_1 (Conv1D)            (None, 96, 64)            12352     
_________________________________________________________________
max_pooling1d (MaxPooling1D) (None, 48, 64)            0         
_________________________________________________________________
conv1d_2 (Conv1D)            (None, 48, 128)           24704     
_________________________________________________________________
conv1d_3 (Conv1D)            (None, 48, 128)           49280     
_________________________________________________________________
max_pooling1d_1 (MaxPooling1 (None, 24, 128)           0         
_________________________________________________________________
conv1d_4 (Conv1D)            (None, 24, 256)           98560     
_________________________________________________________________
conv1d_5 (Conv1D)            (None, 24, 256)           196864    
_________________________________________________________________
conv1d_6 (Conv1D)            (None, 24, 256)           196864    
_________________________________________________________________
max_pooling1d_2 (MaxPooling1 (None, 12, 256)           0         
_________________________________________________________________
conv1d_7 (Conv1D)            (None, 12, 512)           393728    
_________________________________________________________________
conv1d_8 (Conv1D)            (None, 12, 512)           786944    
_________________________________________________________________
conv1d_9 (Conv1D)            (None, 12, 512)           786944    
_________________________________________________________________
max_pooling1d_3 (MaxPooling1 (None, 6, 512)            0         
_________________________________________________________________
conv1d_10 (Conv1D)           (None, 6, 512)            786944    
_________________________________________________________________
conv1d_11 (Conv1D)           (None, 6, 512)            786944    
_________________________________________________________________
conv1d_12 (Conv1D)           (None, 6, 512)            786944    
_________________________________________________________________
max_pooling1d_4 (MaxPooling1 (None, 3, 512)            0         
_________________________________________________________________
conv1d_13 (Conv1D)           (None, 3, 512)            786944    
_________________________________________________________________
conv1d_14 (Conv1D)           (None, 3, 512)            786944    
_________________________________________________________________
conv1d_15 (Conv1D)           (None, 3, 512)            786944    
_________________________________________________________________
max_pooling1d_5 (MaxPooling1 (None, 1, 512)            0         
_________________________________________________________________
flatten (Flatten)            (None, 512)               0         
_________________________________________________________________
dense (Dense)                (None, 4096)              2101248   
_________________________________________________________________
dense_1 (Dense)              (None, 4096)              16781312  
_________________________________________________________________
dense_2 (Dense)              (None, 2)                 8194      
=================================================================
Total params: 26,158,914
Trainable params: 26,158,914
Non-trainable params: 0
_________________________________________________________________
Model: "model"
_________________________________________________________________
Layer (type)                 Output Shape              Param #   
=================================================================
input_1 (InputLayer)         [(None, 96, 1)]           0         
_________________________________________________________________
conv1d (Conv1D)              (None, 96, 64)            256       
_________________________________________________________________
conv1d_1 (Conv1D)            (None, 96, 64)            12352     
_________________________________________________________________
max_pooling1d (MaxPooling1D) (None, 48, 64)            0         
_________________________________________________________________
conv1d_2 (Conv1D)            (None, 48, 128)           24704     
_________________________________________________________________
conv1d_3 (Conv1D)            (None, 48, 128)           49280     
_________________________________________________________________
max_pooling1d_1 (MaxPooling1 (None, 24, 128)           0         
_________________________________________________________________
conv1d_4 (Conv1D)            (None, 24, 256)           98560     
_________________________________________________________________
conv1d_5 (Conv1D)            (None, 24, 256)           196864    
_________________________________________________________________
conv1d_6 (Conv1D)            (None, 24, 256)           196864    
_________________________________________________________________
max_pooling1d_2 (MaxPooling1 (None, 12, 256)           0         
_________________________________________________________________
conv1d_7 (Conv1D)            (None, 12, 512)           393728    
_________________________________________________________________
conv1d_8 (Conv1D)            (None, 12, 512)           786944    
_________________________________________________________________
conv1d_9 (Conv1D)            (None, 12, 512)           786944    
_________________________________________________________________
max_pooling1d_3 (MaxPooling1 (None, 6, 512)            0         
_________________________________________________________________
conv1d_10 (Conv1D)           (None, 6, 512)            786944    
_________________________________________________________________
conv1d_11 (Conv1D)           (None, 6, 512)            786944    
_________________________________________________________________
conv1d_12 (Conv1D)           (None, 6, 512)            786944    
_________________________________________________________________
max_pooling1d_4 (MaxPooling1 (None, 3, 512)            0         
_________________________________________________________________
conv1d_13 (Conv1D)           (None, 3, 512)            786944    
_________________________________________________________________
conv1d_14 (Conv1D)           (None, 3, 512)            786944    
_________________________________________________________________
conv1d_15 (Conv1D)           (None, 3, 512)            786944    
_________________________________________________________________
max_pooling1d_5 (MaxPooling1 (None, 1, 512)            0         
_________________________________________________________________
flatten (Flatten)            (None, 512)               0         
_________________________________________________________________
dense (Dense)                (None, 4096)              2101248   
_________________________________________________________________
dense_1 (Dense)              (None, 4096)              16781312  
_________________________________________________________________
dense_2 (Dense)              (None, 2)                 8194      
=================================================================
Total params: 26,158,914
Trainable params: 26,158,914
Non-trainable params: 0
_________________________________________________________________
Epoch 1/25600
1/5 [=====>........................] - ETA: 20s - loss: 0.8630 - accuracy: 0.60944/5 [
…
